Model/trained/model.ckpt (torch_old, 35106 bytes, 8 tensors)

encoder.weight f4 [26, 53]
0.073109314 -0.0341885 0.001283826 -0.05972657 0.042276163 0.1245483 0.06658093 0.09700804
0.022616759 0.04865129 0.08653279 0.13622895 -0.068454646 -0.0045513883 0.020795565 -0.030286506
0.17901973 0.13641468 0.0437503 -0.10587238 0.15443793 0.017903924 0.18674216 0.11091352
-0.06207567 -0.016534414 -0.064233035 -0.093185894 0.08176068 0.07122779 0.11108916 0.015542401
0.029760385 -0.038452994 -0.084025055 0.12246378 0.016495036 0.10205997 0.1389494 -0.12754793
-0.07906925 -0.045248955 0.051248584 -0.09714985 -0.05131884 -0.09075094 -0.096581936 0.16609846
-0.044279292 -0.04073917 -0.08536068 -0.016220238 -0.102326274 0.113487355 -0.1423213 0.11249489
-0.061059453 -0.11101216 0.012500501 0.010908804 -0.08738918 -0.015725736 0.071781226 0.07474468
-0.10913251 0.059623316 0.068591304 -0.04208937 -0.0021732433 0.06504175 -0.014038462 0.048995998
0.026871523 -0.12156644 -0.07601349 -0.082416475 -0.11073212 0.0117240595 0.018143758 -0.0840678
-0.07700972 -0.09642959 0.012795935 -0.029126296 0.2271051 0.037262153 0.008619263 -0.012672003
0.04828796 0.050142944 0.09920228 0.115310036 0.12212917 -0.11928209 0.167655 -0.10567186
-0.08478956 0.0422061 -0.034438282 -0.02370565 0.13151693 -0.0537969 0.0071316212 0.14003605
0.09708871 0.04595936 -0.14245644 0.21798661 -0.027131176 0.04255142 0.07007883 0.14153431
0.2964203 -0.11854966 0.16942929 0.16662723 0.14778762 -0.06707046 0.004509175 0.1243712
0.03766835 0.036712244 0.008015994 -0.03647322 -0.09464523 -0.042923503 0.022018766 0.03459878
-0.0011082578 0.09373819 0.013215588 0.15568526 -0.1010859 0.02609472 0.1463621 -0.019608667
0.16845714 -0.08492119 0.12783697 -0.055635482 -0.09979131 0.061710637 -0.05893227 -0.027740583
-0.009126577 0.003478564 -0.15965238 -0.0156142665 -0.08728515 -0.07452863 -0.0065712254 0.11707136
0.10471154 0.035860468 0.19305374 0.1293621 0.12326448 0.14188555 -0.013396318 -0.08777614
-0.13603733 0.08135394 0.0566905 -0.048555624 -0.16217765 0.10970589 -0.16886339 0.16443041
0.1931818 -0.042795084 -0.09238625 0.19010438 0.07578337 -0.062011402 -0.14451207 0.11170193
-0.12114063 -0.06615176 -0.07903495 0.15065628 -0.13859156 -0.12038223 -0.004693252 0.032143336
-0.06727516 0.09477195 -0.08093118 -0.024709078 0.04196799 0.10284034 -0.0006907364 0.12687483
0.0057610413 0.03630004 0.079856545 0.048095986 -0.010338182 0.016534064 -0.13233624 -0.047838364
0.0329591 -0.050372988 0.043827508 -0.06305721 0.048855815 -0.018688912 0.13987195 -0.085802875
0.08031936 0.0952594 0.14016661 -0.039811168 0.11007413 -0.019032994 0.08810231 0.027876964
-0.03357338 0.10796148 0.09322205 -0.15574636 0.0821757 0.15264016 0.0031678036 -0.091253296
0.20414422 0.12460955 0.0927111 -0.11873851 -0.009233104 -0.01712927 0.16933104 0.064051375
0.019126596 -0.075289406 -0.03706281 0.122245684 -0.029784944 0.16286346 -0.049645964 0.08215574
-0.11309615 -0.11914931 -0.007683726 0.14684461 0.0073741516 -0.014883678 -0.026986493 -0.0019215469
0.030463647 -0.036389258 -0.06540958 -0.060749765 0.05475498 -0.054284435 0.05700801 -0.16235311
00000000: 56ba 953d 3e09 0cbd 0d46 a83a d9a3 74bd
00000010: c529 2d3d 2e13 ff3d 955b 883d 27ac c63d
00000020: c846 b93c 9346 473d 1a38 b13d 9a7f 0b3e
00000030: f331 8cbd d023 95bb 765b aa3c 681b f8bc
00000040: f350 373e 4ab0 0b3e 8433 333d 9ed3 d8bd
00000050: fa24 1e3e 40ab 923c 5639 3f3e a126 e33d
00000060: 0f43 7ebd 2e73 87bc 9c8c 83bd 3fd8 bebd
00000070: 2572 a73d e0df 913d b782 e33d 8ea5 7e3c
00000080: 0dcc f33c e380 1dbd 5415 acbd 4ace fa3d
00000090: 9920 873c d104 d13d c048 0e3e ed9b 02be
000000a0: 0fef a1bd f856 39bd 09ea 513d 80f6 c6bd
000000b0: b433 52bd a1db b9bd c0cc c5bd b715 2a3e
000000c0: 345e 35bd 1ede 26bd 95d1 aebd 4ee0 84bc
000000d0: 7090 d1bd 0f6c e83d adbc 11be b963 e63d
000000e0: 7a19 7abd 585a e3bd e7ce 4c3c d7ba 323c
000000f0: 19f9 b2bd 42d3 80bc 0902 933d bd13 993d
00000100: de80 dfbd 9437 743d 9979 8c3d e765 2cbd
00000110: f96c 0ebb 9c34 853d 9401 66bc 07b0 483d
00000120: ab21 dc3c d3f7 f8bd f6ac 9bbd f8c9 a8bd
00000130: 86c7 e2bd 4516 403c 38a2 943c bd2b acbd
00000140: 46b7 9dbd e07c c5bd 0ba6 513c 459a eebc
00000150: 3d8e 683e 33a0 183d cf37 0d3c 3c9e 4fbc
00000160: 99c9 453d b062 4d3d 912a cb3d ab27 ec3d
00000170: dc1e fa3d 2b4a f4bd c1ad 2b3e 7d6a d8bd
00000180: 26a6 adbd 4ee0 2c3d 280f 0dbd 5a32 c2bc
00000190: 60ac 063e 235a 5cbd 60b0 e93b 9c65 0f3e
000001a0: 72d6 c63d e23f 3c3d 1ae0 11be e237 5f3e
000001b0: 3342 debc 664a 2e3d 7d85 8f3d 5fee 103e
000001c0: 67c4 973e 2aca f2bd df7e 2d3e 54a0 2a3e
000001d0: a355 173e 3d5c 89bd b4c1 933b 54b6 fe3d
000001e0: 214a 1a3d 945f 163d 8455 033c f164 15bd
000001f0: 5cd5 c1bd 8ed0 2fbd b360 b43c 73b7 0d3d
00000200: f642 91ba cff9 bf3d 3286 583c f56b 1f3e
00000210: 2006 cfbd 98c4 d53c f2df 153e 5ba2 a0bc
00000220: 0780 2c3e 29eb adbd b2e7 023e 08e2 63bd
00000230: 635f ccbd 4bc4 7c3d f762 71bd 3840 e3bc
00000240: a387 15bc 9ff8 633b ea7b 23be fbd2 7fbc
00000250: 8fc2 b2bd 77a2 98bd 6f53 d7bb 1cc3 ef3d
00000260: 0173 d63d 6de2 123d e1af 453e 8077 043e
00000270: 1672 fc3d 724a 113e 3b7c 5bbc fac3 b3bd
00000280: 5f4d 0bbe e59c a63d 4c34 683d 43e2 46bd
00000290: e611 26be 7bad e03d 86ea 2cbe 7260 283e
000002a0: 73d1 453e e649 2fbd 0135 bdbd b9aa 423e
000002b0: 5034 9b3d abff 7dbd f9fa 13be fbc3 e43d
000002c0: 9418 f8bd 937a 87bd 13dd a1bd a445 1a3e
000002d0: f2ea 0dbe f58a f6bd dac9 99bb bba8 033d
000002e0: 8fc7 89bd cc17 c23d 3fbf a5bd b16a cabc
000002f0: a1e6 2b3d f59d d23d 8912 35ba 7aeb 013e
00000300: 1ec7 bc3b 5aaf 143d d48b a33d 4c00 453d
00000310: 7a61 29bc 7272 873c 2783 07be 29f2 43bd
00000320: 1f00 073d e853 4ebd 7984 333d 2324 81bd
00000330: 091d 483d 7d19 99bc 983a 0f3e 6bb9 afbd
00000340: 7a7e a43d 5c17 c33d d687 0f3e 0911 23bd
00000350: 8c6e e13d 15eb 9bbc fc6e b43d 3b5e e43c
00000360: 3e84 09bd e91a dd3d 34eb be3d f97b 1fbe
00000370: bc4b a83d b44d 1c3e ed9a 4f3b 02e3 babd
00000380: 2f0b 513e 4b33 ff3d 51df bd3d 2d2d f3bd
00000390: 7246 17bc af52 8cbc 1e65 2d3e 5e2d 833d
000003a0: 61af 9c3c 5531 9abd 2ccf 17bd f25b fa3d
000003b0: 8eff f3bc aec5 263e 9159 4bbd 4541 a83d
000003c0: f49e e7bd 8e04 f4bd c4c7 fbbb 6f5e 163e
000003d0: dea2 f13b acda 73bc c712 ddbc 6adc fbba
000003e0: e68e f93c e70c 15bd 75f5 85bd bfd4 78bd
000003f0: c246 603d 5b59 5ebd 3b81 693d e53f 26be

encoder.bias f4 [26]
-0.10123364 -0.037207972 0.039095357 -0.13039586 -0.05717089 -0.14300796 -0.068660796 0.087663345
-0.20134051 0.1427886 0.14985435 0.07098694 -0.076285236 -0.060058918 0.03105836 -0.1358336
0.04973251 0.04782492 0.1088287 -0.10785569 -0.10406503 -0.053544026 0.1296306 -0.018597001
0.25127468 -0.003315504
00000000: 9553 cfbd 6367 18bd 7422 203d 7e86 05be
00000010: 062c 6abd ae70 12be 089e 8cbd d788 b33d
00000020: 352c 4ebe 2d37 123e 6b73 193e 9a61 913d
00000030: 6f3b 9cbd 5700 76bd 1a6e fe3c f717 0bbe
00000040: 51b4 4b3d 10e4 433d 95e1 de3d 72e3 dcbd
00000050: 0c20 d5bd fb50 5bbd e2bd 043e bd58 98bc
00000060: 13a7 803e ed48 59bb

lstm.weight_ih f4 [104, 26]
-0.08559181 0.06902727 -0.22705503 0.13011296 0.08598923 -0.047919117 0.030599913 -0.21238272
0.12847716 -0.13705792 0.084495075 0.10348631 -0.12761468 0.12860258 0.08850012 0.01914908
-0.017079376 0.08557693 -0.11749825 0.11006572 -0.0490099 -0.2212562 -0.05666433 0.010769567
0.020953272 0.09715658 -0.07122753 -0.02517353 -0.19312635 -0.0020850813 0.20567536 -0.11932877
-0.03631811 0.04367837 -0.12745425 0.14603463 0.070069894 0.031157337 0.114046164 0.042510424
-0.067107394 -0.02195232 -0.0641928 0.05278577 0.1312605 0.24831977 0.07007111 0.08381115
0.1678698 -0.15827554 -0.031868353 -0.055001356 -0.13840318 -0.049257714 -0.014956937 0.061052416
-0.020081192 0.017735535 -0.09814745 -0.17679359 0.07033385 0.056246895 -0.1240094 0.081398696
-0.18073125 -0.22626173 0.14954072 -0.081783436 0.10393249 -0.016130818 0.06861888 0.19491304
-0.13577904 0.052592587 -0.021625679 0.118746154 0.10819198 -0.11390282 -0.08123145 -0.18435733
-0.12394883 -0.08519393 -0.18751481 -0.02955149 -0.17275906 -0.034870226 0.0687126 -0.035680674
0.13294184 -0.15174831 -0.16151473 -0.1271882 -0.08537947 -0.05967112 -0.046108205 0.056800205
0.1472671 -0.14673164 0.016602702 0.046656497 -0.060947426 0.2085771 0.0306891 0.17588097
-0.18780726 -0.16264635 0.0067575993 -0.03710864 0.10531359 0.0024413764 -0.22716616 -0.17527536
-0.10755486 -0.020426942 0.12345678 0.13546392 -0.18146786 0.10988784 -0.2076823 0.08336264
-0.0056487177 0.0319294 0.0832132 -0.04630326 0.03380237 -0.19367898 0.20726855 0.016500033
-0.11777137 0.21710612 0.020594932 -0.07198246 -0.024747208 -0.04341473 0.010470528 0.07302096
0.058454424 0.15964088 0.021289831 0.17696993 0.022164827 -0.01375329 -0.18077818 0.123535365
0.118856035 0.15175937 0.2313171 0.061345752 -0.017962882 -0.050949294 -0.096403934 0.005629637
0.08635695 0.1876018 -0.14142615 -0.039064907 -0.21941568 -0.031592168 -0.18180218 0.08593282
-0.23714435 -0.13569476 -0.04011907 -0.19796082 -0.1075503 -0.10573315 -0.08697397 0.23798831
-0.16195133 -0.018129932 0.108884305 -0.018174063 -0.15191053 0.2263541 0.11099906 0.062062416
-0.05109248 0.013309884 0.21511103 0.12575829 0.062179618 -0.11873481 -0.015000874 -0.14025123
-0.08305548 -0.15633051 -0.07009629 -0.10410189 0.1475187 0.06261924 0.096657686 0.10772446
0.009186603 0.14733166 0.12305016 -0.12835696 -0.051316764 -0.028072245 0.16485494 -0.0994092
0.17507203 0.08576597 -0.16450898 -0.123155236 0.12346693 0.022884956 -0.06147163 0.046860266
-0.114183 0.11822111 0.14876784 -0.042941436 -0.08664494 -0.031973053 -0.030389931 -0.093649454
0.066792354 0.08441055 0.16546622 -0.08997562 -0.1779827 -0.062877074 -0.09414313 0.07629574
0.21311349 -0.06521066 -0.025524331 0.14284745 -0.04975115 -0.13248545 0.095279664 0.12176081
-0.04544654 0.10351363 0.04729811 -0.15362135 0.003997378 -0.13222575 -0.07232293 0.11876671
0.12236001 0.005423385 0.1412729 0.1377648 0.20907825 0.09313468 -0.21574517 0.11959455
-0.012828559 -0.14104116 -0.11438234 0.23495808 0.08957059 0.115219645 -0.018604152 -0.18225716
00000000: c24a afbd 2b5e 8d3d 1d81 68be 553c 053e
00000010: 1f1b b03d d646 44bd abac fa3c db7a 59be
00000020: 848f 033e e958 0cbe c10b ad3d a1f0 d33d
00000030: 6cad 02be 65b0 033e 8d3f b53d 88de 9c3c
00000040: 0cea 8bbc f542 af3d eca2 f0bd 236a e13d
00000050: 9bbe 48bd fc90 62be db18 68bd d772 303c
00000060: 32a6 ab3c 07fa c63d bddf 91bd b838 cebc
00000070: eac2 45be dca5 08bb 909c 523e a462 f4bd
00000080: 4cc2 14bd 17e8 323d 5e83 02be 1a8a 153e
00000090: ce80 8f3d ac3d ff3c 0991 e93d 691f 2e3d
000000a0: 9a6f 89bd 5ad5 b3bc 8477 83bd e435 583d
000000b0: 2769 063e 8a47 7e3e 7181 8f3d 2ea5 ab3d
000000c0: 10e6 2b3e fc12 22be 6488 02bd 1a49 61bd
000000d0: 90b9 0dbe 75c2 49bd f10d 75bc 1912 7a3d
000000e0: 5081 a4bc 1d4a 913c 8801 c9bd 6109 35be
000000f0: 320b 903d 2563 663d a4f8 fdbd 5cb4 a63d
00000100: 9d11 39be 28b1 67be 3421 193e 137e a7bd
00000110: 8fda d43d c724 84bc 0e88 8c3d 4997 473e
00000120: a909 0bbe 536b 573d 5628 b1bc 2f31 f33d
00000130: c293 dd3d e245 e9bd ad5c a6bd 2bc8 3cbe
00000140: e2d8 fdbd 287a aebd e203 40be f715 f2bc
00000150: c0e7 30be 15d4 0ebd 31b9 8c3d e625 12bd
00000160: e821 083e e963 1bbe 1e64 25be a03d 02be
00000170: 6edb aebd b469 74bd f5db 3cbd 55a7 683d
00000180: 30cd 163e d240 16be 6402 883c e21a 3f3d
00000190: 02a4 79bd 3c95 553e b567 fb3c 241a 343e
000001a0: 8c50 40be c48c 26be da6e dd3b 3bff 17bd
000001b0: a7ae d73d 80ff 1f3b 3f9e 68be 627b 33be
000001c0: b945 dcbd 6756 a7bc e9d6 fc3d 0eb7 0a3e
000001d0: b6d2 39be e00c e13d abaa 54be 08ba aa3d
000001e0: e118 b9bb 67c8 023d af6b aa3d 7da8 3dbd
000001f0: 5b74 0a3d c853 46be 353e 543e 142b 873c
00000200: 1e32 f1bd 1151 5e3e b4b6 a83c 8a6b 93bd
00000210: a8ba cabc a5d3 31bd 948c 2b3c 038c 953d
00000220: e86d 6f3d e678 233e 0368 ae3c 9b37 353e
00000230: 0393 b53c 7b55 61bc ea1d 39be 1c00 fd3d
00000240: cb6a f33d cf66 1b3e 64de 6c3e af45 7b3d
00000250: e526 93bc 35b0 50bd 6d6f c5bd d178 b83b
00000260: eadb b03d b01a 403e 04d2 10be 8602 20bd
00000270: 81ae 60be ca66 01bd 5a2a 3abe 8cfd af3d
00000280: f8d5 72be 91f3 0abe e553 24bd 3eb6 4abe
00000290: 5543 dcbd 9f8a d8bd 691f b2bd 35b3 733e
000002a0: 92d6 25be 3985 94bc bcfe de3d c6e1 94bc
000002b0: 6f8e 1bbe 5fc9 673e 7a53 e33d 2935 7e3d
000002c0: 5946 51bd b311 5a3c 1146 5c3e c8c6 003e
000002d0: 0eb0 7e3d 3c2b f3bd 3ac6 75bc 059e 0fbe
000002e0: fe18 aabd 1b15 20be a58e 8fbd 5f33 d5bd
000002f0: 240f 173e 843e 803d 77f4 c53d a49e dc3d
00000300: 6883 163c 1cde 163e b901 fc3d 0270 03be
00000310: 8731 52bd c4f7 e5bc bccf 283e 0d97 cbbd
00000320: 1546 333e 12a6 af3d 0b75 28be d038 fcbd
00000330: 3bdc fc3d 3b79 bb3c adc9 7bbd 8df0 3f3d
00000340: c7d8 e9bd e91d f23d 9956 183e 5ce3 2fbd
00000350: e772 b1bd 2df6 02bd 4ef4 f8bc 49cb bfbd
00000360: 6eca 883d 70df ac3d fa6f 293e 2345 b8bd
00000370: 1941 36be b2c5 80bd 1dce c0bd f140 9c3d
00000380: 6c3a 5a3e 2b8d 85bd 6718 d1bc 9a46 123e
00000390: ddc7 4bbd 44aa 07be fc21 c33d bb5d f93d
000003a0: 2726 3abd f4fe d33d aabb 413d ea4e 1dbe
000003b0: 70fc 823b 3066 07be 0b1e 94bd f63b f33d
000003c0: e397 fa3d a7b6 b13b d8a9 103e 3712 0d3e
000003d0: 9c18 563e 65bd be3d 4dec 5cbe fded f43d
000003e0: e02e 52bc 186d 10be 4a41 eabd da98 703e
000003f0: c970 b73d 47f8 eb3d bc67 98bc 9fa1 3abe

lstm.weight_hh f4 [104, 26]
-0.13170643 0.040533476 -0.1280909 -0.05918887 0.052663743 -0.026425717 -0.04867916 -0.16732955
-0.14979436 -0.08320727 0.117327705 -0.16018687 0.059220012 -0.1469109 0.18937796 -0.14831482
-0.1263976 0.016837709 -0.17200825 -0.06793487 0.046326153 -0.16270837 0.05251535 -0.19775546
0.15078484 0.062266104 0.011570974 -0.14095406 0.23454078 0.17970163 0.27593294 -0.30285147
0.30722392 -0.02052082 -0.07583616 0.27686796 0.002007714 0.24368817 0.20942187 0.22483285
0.16725497 0.21587013 -0.038967345 -0.05176904 -0.057768956 0.11344869 -0.16305062 -0.2715025
-0.2545795 -0.111339726 0.023485517 0.19878395 -0.21512292 -0.09868944 0.15898731 0.045037955
0.13866402 0.038238782 0.21068914 -0.01883177 0.056001555 -0.14578597 -0.093151316 -0.08882775
-0.012222561 0.17012233 -0.106748305 -0.061596993 -0.0053677326 0.20645659 -0.074380964 0.21604754
0.03277884 0.06778986 -0.026474176 0.13398354 0.19132774 -0.11923335 0.02306947 -0.06053536
0.059006743 0.051534284 0.07268747 -0.05783151 0.23122928 -0.20021422 -0.20897675 0.1225602
0.08034437 0.03599938 -0.072017625 -0.0013038096 0.0004940036 -0.057870872 -0.20621283 0.13752821
0.17918374 0.03038218 0.06508668 0.042867243 0.08956733 0.15473653 -0.06854274 0.10303516
0.11002213 0.069081604 0.039170835 0.007064515 0.13887326 -0.18919447 -0.015706327 0.00871323
-0.045764547 0.14684023 -0.13496803 0.009699097 0.05776152 -0.02985943 0.11096567 0.20561513
0.14331855 0.013838811 -0.10160313 -0.05623347 -0.16269413 0.06563781 0.109499656 -0.20096067
0.23687394 0.17691031 -0.050132565 -0.11072748 0.22469679 0.056916483 0.11381266 0.10811192
-0.03983443 0.027242424 0.046019495 0.18327051 0.084240995 0.172674 0.09802927 -0.027216125
0.059635777 -0.12794189 -0.007940965 0.057044853 0.0047335867 0.22318842 0.13698542 0.17197627
-0.15873611 0.019180395 0.0019683156 0.033979055 0.06136272 -0.02555605 -0.093039826 0.18188258
0.093270846 0.1631349 -0.060906503 0.1851309 0.17610045 -0.108563036 0.06877746 0.18947414
-0.04252058 -0.064947955 0.20907515 -0.09661801 0.0027722598 -0.1231033 -0.013413033 -0.1287378
0.10030666 -0.088153474 0.12614848 0.021444436 0.22088237 0.0014666095 -0.28236648 0.078026064
0.209027 0.32481122 0.26585573 -0.2939095 0.13240606 -0.32752725 -0.25691947 0.083703645
-0.19331619 0.005035075 0.11069298 0.3299241 0.20340998 0.014795471 -0.14966956 0.15471222
0.12689693 0.09131058 0.038175616 -0.09967976 -0.348294 0.089491256 0.14993516 0.21062997
-0.0005918787 -0.09350818 -0.14545129 0.1811822 0.04145824 0.12656932 -0.13464352 0.14144917
-0.13956623 0.10966593 0.10882543 0.15938593 -0.11678763 0.19206227 0.12712522 0.03408674
0.13403133 -0.0007637828 0.049387544 0.12880903 -0.21020561 0.098709255 -0.18417569 -0.18790045
0.03182482 -0.109438755 -0.051085226 0.08025267 0.0985685 0.062994435 -0.059273634 -0.22900282
-0.09662325 0.03563342 -0.21340448 0.08842832 -0.06267148 0.05032432 -0.09733399 0.2172379
-0.07310177 0.03727201 0.002614603 -0.12480512 -0.034866046 0.026790835 0.07327325 0.05823299
00000000: 0dde 06be 6e06 263d 432a 03be 0770 72bd
00000010: f0b5 573d bf7a d8bc cd63 47bd 7058 2bbe
00000020: b163 19be 9368 aabd 8249 f03d 0708 24be
00000030: af90 723d d06f 16be 4cec 413e d7df 17be
00000040: 5f6e 01be 3cef 893c ee22 30be 7021 8bbd
00000050: 7ec0 3d3d 069d 26be 561a 573d 6880 4abe
00000060: 5767 1a3e be0a 7f3d 2f94 3d3c 4356 10be
00000070: 752b 703e b403 383e 1547 8d3e 590f 9bbe
00000080: 744c 9d3e 471b a8bc fd4f 9bbd a3c1 8d3e
00000090: da93 033b 6489 793e b072 563e 953a 663e
000000a0: e344 2b3e 0f0d 5d3e 399c 1fbd c60b 54bd
000000b0: 249f 6cbd c957 e83d bef6 26be 6002 8bbe
000000c0: 3f58 82be 1506 e4bd b364 c03c 058e 4b3e
000000d0: 2f49 5cbe b01d cabd 92cd 223e b879 383d
000000e0: f1fd 0d3e 45a0 1c3d e5be 573e 1645 9abc
000000f0: e361 653d eb48 15be 1ec6 bebd 53eb b5bd
00000100: 2341 48bc 8c34 2e3e db9e dabd 214d 7cbd
00000110: cee3 afbb 5b69 533e 0c55 98bd 913b 5d3e
00000120: 1b43 063d 69d5 8a3d 5fe0 d8bc fb32 093e
00000130: 6beb 433e 9d30 f4bd 2ffc bc3c edf3 77bd
00000140: 0eb1 713d 9d15 533d 2bdd 943d bce0 6cbd
00000150: 5ec7 6c3e f504 4dbe 00fe 55be d800 fb3d
00000160: 978b a43d 1674 133d fa7d 93bd 97e4 aaba
00000170: 0580 013a 020a 6dbd 7529 53be 32d4 0c3e
00000180: f17b 373e 0de4 f83c 2a4c 853d 9095 2f3d
00000190: 146f b73d 4173 1e3e 2360 8cbd 1904 d33d
000001a0: 4853 e13d a87a 8d3d 9971 203d 727d e73b
000001b0: cb34 0e3e 32bc 41be 8eaa 80bc efc1 0e3c
000001c0: 9b73 3bbd 495d 163e 0f35 0abe f6e8 1e3c
000001d0: 5897 6c3d c39b f4bc f841 e33d c68c 523e
000001e0: 19c2 123e 2ebc 623c 4d15 d0bd 1155 66bd
000001f0: 4a99 26be 1e6d 863d 5b41 e03d a2c8 4dbe
00000200: 158f 723e fa27 353e ce57 4dbd 17c5 e2bd
00000210: ea16 663e 4221 693d 9d16 e93d c869 dd3d
00000220: 6d29 23bd 812b df3c f07e 3c3d 44ab 3b3e
00000230: 8b86 ac3d 74d1 303e 92c3 c83d 5af4 debc
00000240: a544 743d 3303 03be d21a 02bc dda7 693d
00000250: 341c 9b3b 818b 643e e845 0c3e 8c1a 303e
00000260: b88b 22be 3420 9d3c dbfe 003b 9f2d 0b3d
00000270: 7a57 7b3d ec5a d1bc aa8b bebd 6d3f 3a3e
00000280: c904 bf3d d60c 273e 1979 79bd f492 3d3e
00000290: ad53 343e 4c56 debd 32db 8c3d 8205 423e
000002a0: 0f2a 2ebd 6f03 85bd cc17 563e aadf c5bd
000002b0: cdae 353b 951d fcbd 57c2 5bbc d8d3 03be
000002c0: 946d cd3d cf89 b4bd 112d 013e 3eac af3c
000002d0: fd2e 623e 403b c03a 5792 90be 21cc 9f3d
000002e0: 2d0b 563e a84d a63e 3e1e 883e 4e7b 96be
000002f0: 7495 073e a7b1 a7be f38a 83be d16c ab3d
00000300: aef4 45be 45fd a43b 00b3 e23d d0eb a83e
00000310: b54a 503e b468 723c fa42 19be e16c 1e3e
00000320: 45f1 013e 0b01 bb3d 095e 1c3d e724 ccbd
00000330: 9753 b2be 3147 b73d 9a88 193e 62af 573e
00000340: 4f28 1bba 3781 bfbd 2ff1 14be d487 393e
00000350: 1ed0 293d 639b 013e fedf 09be 0dd8 103e
00000360: 73ea 0ebe 8898 e03d dedf de3d 1136 233e
00000370: 5a2e efbd f9ab 443e 1d2d 023e 8a9e 0b3d
00000380: 823f 093e 9938 48ba 984a 4a3d 84e6 033e
00000390: 2440 57be 1428 ca3d 8d98 3cbe fa68 40be
000003a0: be5a 023d 6d21 e0bd be3e 51bd 835b a43d
000003b0: 48de c93d 3a03 813d e9c8 72bd b77f 6abe
000003c0: 69e2 c5bd 59f4 113d b486 5abe e819 b53d
000003d0: e859 80bd e020 4e3d 0b57 c7bd 9d73 5e3e
000003e0: 61b6 95bd 89aa 183d c259 2b3b d499 ffbd
000003f0: b3cf 0ebd 7478 db3c 4910 963d b785 6e3d

lstm.bias_ih f4 [104]
-0.0949208 -0.017857045 -0.0015858555 -0.14492068 -0.10860913 0.16362216 0.18257703 0.055387437
-0.06916124 -0.1492335 0.15942357 0.14455314 -0.013532291 -0.14228024 -0.15925653 -0.060642835
-0.06843209 -0.17286304 -0.10513913 0.020821076 -0.07023679 0.045722608 0.05134557 -0.009174295
0.002200809 0.12465783 0.12686323 0.15552507 0.024030115 0.16368902 0.03381057 0.004891404
-0.09905703 -0.27511883 -0.12223857 0.08730773 0.1449548 -0.052374423 -0.10464733 0.09476619
-0.16776416 0.10281671 0.07818921 0.035590768 0.058014575 0.22561285 0.06553702 -0.074289694
0.18708801 0.020532027 -0.06937373 0.19706726 -0.08415071 0.15747589 0.20993762 -0.011428515
0.118836194 0.005872819 0.15821525 -0.028653592 -0.17338943 -0.00400547 -0.064528815 0.046403505
0.1388877 -0.049504258 0.015966028 -0.0023090176 -0.13136975 -0.028622346 -0.122918375 0.00279482
-0.20575546 0.06273118 -0.12822303 -0.18182907 -0.056508843 -0.08001684 -0.05812794 0.021914752
-0.06425627 -0.048776343 -0.015187361 -0.0076489355 -0.17047004 0.2624831 -0.079929836 0.16990128
0.050973486 -0.012378281 0.1269728 0.28618288 -0.16520843 0.077288434 -0.00754817 0.10345751
0.09198762 -0.0066734883 0.13113727 -0.20888627 -0.097695544 0.14956379 -0.016532952 -0.04761319
00000000: d665 c2bd f048 92bc 7bdc cfba 1666 14be
00000010: 776e debd 918c 273e 79f5 3a3e f0dd 623d
00000020: 68a4 8dbd abd0 18be ef3f 233e bd05 143e
00000030: 8bb6 5dbc e9b1 11be 2514 23be 9f64 78bd
00000040: 2026 8cbd 0203 31be 2f53 d7bd f690 aa3c
00000050: 4ed8 8fbd a147 3b3d bb4f 523d c84f 16bc
00000060: 733b 103b 9b4c ff3d 6fe8 013e f741 1f3e
00000070: ceda c43c 189e 273e f47c 0a3d 1248 a03b
00000080: 6ade cabd 60dc 8cbe 3758 fabd 65ce b23d
00000090: 086f 143e 9086 56bd 5751 d6bd c714 c23d
000000a0: 5eca 2bbe 9191 d23d aa21 a03d a0c7 113d
000000b0: b1a0 6d3d 0e07 673e 4638 863d 3225 98bd
000000c0: 0094 3f3e c832 a83c d013 8ebd 00cc 493e
000000d0: 3557 acbd 5c41 213e e3f9 563e ab3e 3bbc
000000e0: 6460 f33d c770 c03b 2e03 223e f0ba eabc
000000f0: 008d 31be 5140 83bb af27 84bd 9a11 3e3d
00000100: 9438 0e3e fac4 4abd 30cb 823c e352 17bb
00000110: cb85 06be 6979 eabc a1bc fbbd 4c29 373b
00000120: 8fb1 52be 3479 803d e64c 03be 6631 3abe
00000130: d175 67bd dedf a3bd 9017 6ebd 9186 b33c
00000140: cb98 83bd b4c9 47bd 69d4 78bc eca3 fabb
00000150: b38f 2ebe 2f64 863e 41b2 a3bd 9afa 2d3e
00000160: 93c9 503d 46ce 4abc 2805 023e 9086 923e
00000170: 662c 29be 6649 9e3d a456 f7bb 88e1 d33d
00000180: 0164 bc3d 47ad dabb d948 063e 48e6 55be
00000190: 9a14 c8bd 4027 193e 1d70 87bc 0c06 43bd

lstm.bias_hh f4 [104]
-0.13051893 -0.12264363 0.16821076 0.02318278 -0.028244918 -0.09169874 -0.0029377572 0.17778198
-0.07121166 -0.082018875 0.18757908 0.12506366 0.10957132 -0.11712956 -0.11361716 0.13805516
0.19944023 0.0841187 0.03924238 -0.12359476 -0.073354594 -0.08798423 0.039462697 -0.0744514
0.1805645 0.049683865 0.1985227 -0.121515945 -0.0005756462 -0.035199318 0.016703177 0.20170365
0.06929623 -0.1378208 -0.074411206 0.17854717 -0.023620764 -0.021091007 -0.1646503 -0.09565169
0.0048382664 0.23912773 -0.091944076 -0.09929483 -0.18322241 -0.045523692 0.028251996 0.12925634
-0.11150118 0.11386122 -0.02236273 -0.17116016 -0.11572054 -0.16303198 0.06871413 0.15286107
-0.12888989 -0.15119873 -0.06355036 0.18660782 -0.03885724 0.1415066 -0.05629617 -0.106246635
0.119408615 0.0941044 -0.12724641 0.12199578 -0.12954688 0.12428579 -0.060485628 0.22289598
-0.12969603 0.05666019 -0.015791694 -0.09988109 0.12649457 -0.084142566 0.07958046 -0.048045687
-0.21289952 0.10819903 0.10359466 -0.039240107 -0.015797103 0.11792112 -0.017728696 -0.1422531
0.10960861 0.15034002 -0.19145998 0.25442594 -0.12218979 0.25997317 0.19475754 -0.277604
0.2202618 0.022661105 0.15483454 -0.03241108 0.047045738 0.0263175 0.11046416 -0.19036536
00000000: c1a6 05be 952c fbbd 713f 2c3e d0e9 bd3c
00000010: e361 e7bc 8dcc bbbd 6387 40bb 7b0c 363e
00000020: 6bd7 91bd 83f9 a7bd bb14 403e b010 003e
00000030: ee66 e03d 9fe1 efbd 1db0 e8bd 555e 0d3e
00000040: 0f3a 4c3e 6d46 ac3d 9ebc 203d 401f fdbd
00000050: ef3a 96bd 1331 b4bd a3a3 213d fa79 98bd
00000060: e6e5 383e 4f81 4b3d 8949 4b3e 5add f8bd
00000070: f6e6 16ba 292d 10bd 1ad5 883c 678b 4e3e
00000080: 2feb 8d3d e520 0dbe e764 98bd 12d5 363e
00000090: 5580 c1bc 0cc7 acbc 179a 28be 09e5 c3bd
000000a0: 528a 9e3b e6dd 743e 2d4d bcbd 165b cbbd
000000b0: a89e 3bbe 0d77 3abd bb70 e73c c65b 043e
000000c0: bb5a e4bd 1230 e93d 0b32 b7bc 9c44 2fbe
000000d0: e4fe ecbd dbf1 26be feb9 8c3d 9d87 1c3e
000000e0: b6fb 03be d7d3 1abe b126 82bd 1f16 3f3e
000000f0: c528 1fbd 1be7 103e d096 66bd d697 d9bd
00000100: 818c f43d cfb9 c03d e24c 02be ecd8 f93d
00000110: f0a7 04be 8c89 fe3d c7bf 77bd d83e 643e
00000120: 09cf 04be 8414 683d 955d 81bc 758e ccbd
00000130: cb87 013e f052 acbd 15fb a23d 8ecb 44bd
00000140: 5502 5abe 7497 dd3d 7029 d43d 3cba 20bd
00000150: ed68 81bc a180 f13d c53b 91bc ccaa 11be
00000160: 7b7a e03d bcf2 193e 160e 44be 1e44 823e
00000170: a43e fabd 341b 853e 856e 473e 1d22 8ebe
00000180: 4f8c 613e c8a3 b93c f28c 1e3e 7bc1 04bd
00000190: 08b3 403d cc97 d73c 093b e23d 23ef 42be

decode.weight f4 [53, 26]
-0.21868463 -0.74435073 0.16037154 0.012135978 0.12849309 -0.07786099 0.20427477 -0.22295922
-0.03891088 0.06505948 0.0026755116 -0.009814205 0.1386652 -0.19102974 0.1283583 0.118968256
0.21898542 -0.077925205 -0.5250353 -0.20939024 0.01342288 -0.25645265 0.15915611 0.56264293
-0.5295157 0.26461285 0.10268957 -0.8822435 0.18329386 -0.012885512 0.060075786 -0.08280798
-0.082854 0.054424193 -0.076129444 0.16283725 0.1641752 0.23090628 -0.08377432 -0.113018654
0.048627052 -0.06805539 0.10662089 0.22235851 -0.4343691 0.11430798 0.037895907 -0.078013524
0.109393656 0.41423884 -0.6809891 0.1876396 0.06525841 -0.15938887 -0.12689024 -0.39397183
-0.3901736 0.7026282 -0.39371312 -0.076509364 0.27524018 -0.24179196 0.22176152 -0.4472052
-0.20427789 -0.68421924 0.06350991 -0.25086203 0.035949275 -0.2719714 -0.14952552 -0.3802778
0.06659465 0.22185473 0.352738 0.09237805 -0.21459234 0.0067159757 0.075430915 -0.86416256
0.18402259 0.020191435 0.08050153 0.006590226 0.13129383 -0.031842258 -0.16120575 0.09041375
-0.020253262 0.1544538 -0.024008757 -0.12716329 0.30982944 -0.09430801 0.08906775 0.108769305
-0.5015165 -0.029205335 -0.16343664 0.008055703 0.008295702 0.59454226 -0.6129538 0.24990855
0.08768782 -1.1674411 -0.14591764 0.08003142 -0.15980557 -0.13114819 0.17002913 -0.22934487
-0.11026753 0.022811605 0.19386737 -0.016957423 0.052742254 -0.20553234 0.24024265 -0.06942836
0.2975939 -0.029553197 -0.24879846 -0.1254348 0.14882532 -0.0574955 -0.1476789 0.44196838
-1.1565351 0.012449323 -0.011232835 -0.91997224 0.032525226 -0.25042018 -0.11307925 0.17288466
-0.06188545 0.07848636 0.13347341 0.04169265 0.17715769 -0.04190719 0.010907868 -0.26335132
-0.36874998 -0.23417029 0.028031398 0.14195979 -0.40480834 -0.11238874 0.0829205 -0.20786911
0.10277593 0.4164834 -0.5534665 -0.03336245 -0.106825456 -0.5609112 -0.22589195 -0.1290194
-0.0048978115 0.51703113 -0.269703 0.15577969 0.20464008 -0.29841578 0.2624344 -0.050730664
-0.17008072 -0.2504842 -0.13676743 -0.19996276 0.14704981 -0.022016024 -0.33673966 0.023821855
0.041426048 0.11017602 0.17957987 0.35745436 -0.39774284 -0.22446962 -0.10141427 -0.46322536
0.03934532 -0.18058267 0.11221727 -0.02842727 -0.050801776 -0.2151991 -0.016560214 -0.0045764465
0.044887245 -0.03312098 0.117571175 0.010596988 0.06655284 0.016630908 0.16944587 0.13615948
-0.5023469 -0.20025305 0.18269935 0.10377504 0.033310194 0.5163418 -0.5171322 -0.20373222
0.07884254 -0.3615367 -0.26969352 -0.24473128 -0.13432921 0.08100275 -0.32174885 -0.25111574
0.26857567 -0.22364129 0.22420461 -0.48901865 -0.06809544 -0.29170623 -0.022526752 -0.1720615
0.11983067 0.03430779 -0.14837658 -0.33751696 0.07790494 0.2468389 0.032974318 0.3518575
-0.33290616 0.02716047 0.20323059 -0.10528078 -0.26237878 -0.39319223 -0.38341928 0.6878829
-0.30122328 0.09784366 0.32096404 -0.14374363 0.19705553 -0.6272335 -0.2922998 -0.5340815
0.19594276 -0.06873113 0.19315499 -0.041968428 -0.039922666 -0.4646781 0.029285626 -0.011144804
00000000: ddee 5fbe c58d 3ebf 7038 243e fbd5 463c
00000010: b193 033e 9575 9fbd 682d 513e 6c4f 64be
00000020: 0461 1fbd e83d 853d a357 2f3b c2cb 20bc
00000030: 40fe 0d3e 4d9d 43be 5c70 033e a1a5 f33d
00000040: b73d 603e 4097 9fbd b768 06bf 656a 56be
00000050: a4eb 5b3c c34d 83be d2f9 223e 5e09 103f
00000060: 578e 07bf 567b 873e e94e d23d b6da 61bf
00000070: 63b1 3b3e c11d 53bc 0712 763d 3b97 a9bd
00000080: 5caf a9bd e7eb 5e3d c1e9 9bbd cfbe 263e
00000090: 8b1d 283e b272 6c3e df91 abbd 5376 e7bd
000000a0: 292d 473d a060 8bbd 0e5c da3d f3b1 633e
000000b0: a065 debe 4d1a ea3d bd38 1b3d 8ec5 9fbd
000000c0: c809 e03d 1d17 d43e 4d55 2ebf 9824 403e
000000d0: 34a6 853d d636 23be 84ef 01be adb6 c9be
000000e0: d6c4 c7be 71df 333f c494 c9be f1b0 9cbd
000000f0: 48ec 8c3e 5098 77be 7415 633e 14f8 e4be
00000100: 392e 51be fe28 2fbf 7c11 823d fd70 80be
00000110: 8c3f 133d d63f 8bbe 381d 19be c6b3 c2be
00000120: c762 883d e32d 633e 139a b43e b430 bd3d
00000130: 18be 5bbe b011 dc3b 867b 9a3d c239 5dbf
00000140: 6b70 3c3e 8268 a53c fcdd a43d d3f2 d73b
00000150: e471 063e 076d 02bd 1f13 25be d82a b93d
00000160: 2bea a5bc 2329 1e3e 03ae c4bc 1837 02be
00000170: f7a1 9e3e 8f24 c1bd 2769 b63d 71c2 de3d
00000180: 6363 00bf 0740 efbc ef5b 27be 11fc 033c
00000190: b2ea 073c ec33 183f 8aea 1cbf 07e8 7f3e
000001a0: ac95 b33d b66e 95bf 6f6b 15be 83e7 a33d
000001b0: 12a4 23be b64b 06be 1e1c 2e3e 62d9 6abe
000001c0: f1d3 e1bd 67df ba3c 2b85 463e 4bea 8abc
000001d0: 4308 583d 1277 52be 2b02 763e 7530 8ebd
000001e0: 3a5e 983e 8c19 f2bc 06c5 7ebe fb71 00be
000001f0: aa65 183e 6780 6bbd 2339 17be ae49 e23e
00000200: 5809 94bf 3ff8 4b3c ed09 38bc 4d83 6bbf
00000210: 2c39 053d 1337 80be 1896 e7bd ad08 313e
00000220: 997b 7dbd 75bd a03d 41ad 083e eac5 2a3d
00000230: d368 353e e0a6 2bbd eab6 323c fcd5 86be
00000240: cccc bcbe 56ca 6fbe 1aa2 e53c e85d 113e
00000250: 0a43 cfbe 112c e6bd 39d2 a93d a4db 54be
00000260: 307c d23d 503d d53e fbaf 0dbf 10a7 08bd
00000270: 4ec7 dabd e097 0fbf 3850 67be a91d 04be
00000280: d27d a0bb 275c 043f 8316 8abe b684 1f3e
00000290: 2b8d 513e f4c9 98be cd5d 863e f5ca 4fbd
000002a0: a429 2ebe 773f 80be c30c 0cbe 0ac3 4cbe
000002b0: 3a94 163e f35a b4bc 2469 acbe 0d26 c33c
000002c0: 5cae 293d f7a3 e13d c9e3 373e 4204 b73e
000002d0: f3a4 cbbe 5ddb 65be 49b2 cfbd e02b edbe
000002e0: 8f28 213d aaea 38be 2bd2 e53d 4ee0 e8bc
000002f0: 8615 50bd 275d 5cbe 49a9 87bc 04f6 95bb
00000300: b0db 373d dda9 07bd 28c9 f03d fd9e 2d3c
00000310: db4c 883d 8b3d 883c 3883 2d3e 646d 0b3e
00000320: ce99 00bf 230f 4dbe 8a15 3b3e 0288 d43d
00000330: 4570 083d fa2e 043f c762 04bf 2e9f 50be
00000340: 3378 a13d 571b b9be 4515 8abe d69a 7abe
00000350: 998d 09be c5e4 a53d 44bc a4be 3e92 80be
00000360: c082 893e 3902 65be e595 653e a760 fabe
00000370: 9f75 8bbd 855a 95be 068a b8bc e430 30be
00000380: c869 f53d 5386 0c3d 08f0 17be 06cf acbe
00000390: a08c 9f3d 56c3 7c3e 1410 073d ab26 b43e
000003a0: ad72 aabe a27f de3c ae1b 503e 739d d7bd
000003b0: 8356 86be 7e50 c9be 884f c4be 1819 303f
000003c0: f039 9abe 4262 c83d 6655 a43e 8831 13be
000003d0: edc8 493e 6092 20bf 52a8 95be 91b9 08bf
000003e0: 38a5 483e e8c2 8cbd 6cca 453e 16e7 2bbd
000003f0: f385 23bd 4aea edbe 69e8 ef3c b298 36bc

decode.bias f4 [53]
-0.042037822 -0.013178181 -0.2157575 0.15928118 0.2525089 0.009708945 -0.066324085 0.025311852
-0.071624726 -0.19294737 -0.27294442 -0.22107223 -0.07840349 -0.16174436 -0.0095777465 0.069480956
-0.15751083 -0.004742185 -0.14709459 -0.24694738 -0.06558432 -0.04510517 0.012343951 -0.042711586
-0.05531163 -0.19795369 -0.28129247 -0.22009398 0.03682562 -0.10985404 -0.11694091 0.07815434
-0.036680445 -0.049800143 -0.21441916 -0.088373534 -0.090148315 -0.06825114 -0.11452545 0.16153081
0.12729295 -0.052537218 -0.27543285 0.06660396 -0.12061874 -0.03053653 -0.15225486 -0.17903973
-0.118028834 -0.007276367 0.0048529254 -0.048627943 -0.06325577
00000000: da2f 2cbd 4ce9 57bc 89ef 5cbe 9b1a 233e
00000010: d948 813e 4412 1f3c ecd4 87bd cd5a cf3c
00000020: fcaf 92bd ff93 45be 5fbf 8bbe c260 62be
00000030: 0292 a0bd 50a0 25be fbeb 1cbc 084c 8e3d
00000040: 854a 21be 5564 9bbb f79f 16be c6df 7cbe
00000050: 1251 86bd 33c0 38bd 483e 4a3c 58f2 2ebd
00000060: 738e 62bd 5fb4 4abe 9105 90be 5160 61be
00000070: 76d6 163d 28fb e0bd b77e efbd 620f a03d
00000080: 3c3e 16bd 3cfb 4bbd b290 5bbe 2ffd b4bd
00000090: ae9f b8bd 41c7 8bbd 528c eabd 5568 253e
000000a0: 1559 023e 4431 57bd 8905 8dbe a867 883d
000000b0: f506 f7bd bf27 fabc b3e8 1bbe 3156 37be
000000c0: 1ab9 f1bd 976e eebb 4a05 9f3b 182e 47bd
000000d0: 3e8c 81bd
